…
 test_all           | 0           
 time_periods       | 6           
 topk               | 5,10,20,50  
===================================
INFO:root:Device: cuda
INFO:root:Reading data from "data/", dataset = "MovieLens_1M" 
INFO:root:Counting dataset statistics...
INFO:root:"# user": 6032, "# item": 3125, "# entry": 574197
INFO:root:Appending history info...
INFO:root:Save corpus to data/MovieLens_1M/SeqReader.pkl
INFO:root:#params: 3663425
INFO:root:SelfGNN(
  (user_embeddings): ModuleList(
    (0-5): 6 x Embedding(6033, 64)
  )
  (item_embeddings): ModuleList(
    (0-5): 6 x Embedding(3126, 64)
  )
  (pos_embeddings): Embedding(20, 64)
  (time_embeddings): Embedding(101, 64)
  (time_projections): ModuleList(
    (0-5): 6 x Linear(in_features=64, out_features=64, bias=True)
  )
  (graph_gru): GRU(64, 64, batch_first=True)
  (user_graph_attention): TransformerLayer(
    (masked_attn_head): MultiHeadAttention(
      (k_linear): Linear(in_features=64, out_features=64, bias=True)
      (v_linear): Linear(in_features=64, out_features=64, bias=True)
    )
    (layer_norm1): LayerNorm((64,), eps=1e-05, elementwise_affine=True)
    (dropout1): Dropout(p=0, inplace=False)
    (linear1): Linear(in_features=64, out_features=64, bias=True)
    (linear2): Linear(in_features=64, out_features=64, bias=True)
    (layer_norm2): LayerNorm((64,), eps=1e-05, elementwise_affine=True)
    (dropout2): Dropout(p=0, inplace=False)
  )
  (item_graph_attention): TransformerLayer(
    (masked_attn_head): MultiHeadAttention(
      (k_linear): Linear(in_features=64, out_features=64, bias=True)
      (v_linear): Linear(in_features=64, out_features=64, bias=True)
    )
    (layer_norm1): LayerNorm((64,), eps=1e-05, elementwise_affine=True)
    (dropout1): Dropout(p=0, inplace=False)
    (linear1): Linear(in_features=64, out_features=64, bias=True)
    (linear2): Linear(in_features=64, out_features=64, bias=True)
    (layer_norm2): LayerNorm((64,), eps=1e-05, elementwise_affine=True)
    (dropout2): Dropout(p=0, inplace=False)
  )
  (sequence_attentions): ModuleList(
    (0-1): 2 x TransformerLayer(
      (masked_attn_head): MultiHeadAttention(
        (q_linear): Linear(in_features=64, out_features=64, bias=True)
        (k_linear): Linear(in_features=64, out_features=64, bias=True)
        (v_linear): Linear(in_features=64, out_features=64, bias=True)
      )
      (layer_norm1): LayerNorm((64,), eps=1e-05, elementwise_affine=True)
      (dropout1): Dropout(p=0, inplace=False)
      (linear1): Linear(in_features=64, out_features=64, bias=True)
      (linear2): Linear(in_features=64, out_features=64, bias=True)
      (layer_norm2): LayerNorm((64,), eps=1e-05, elementwise_affine=True)
      (dropout2): Dropout(p=0, inplace=False)
    )
  )
  (meta_fc1): Linear(in_features=192, out_features=64, bias=True)
  (meta_fc2): Linear(in_features=64, out_features=1, bias=True)
  (user_ln): LayerNorm((64,), eps=1e-05, elementwise_affine=True)
  (item_ln): LayerNorm((64,), eps=1e-05, elementwise_affine=True)
  (seq_ln): LayerNorm((64,), eps=1e-05, elementwise_affine=True)
)
INFO:root:Test Before Training: (HR@5:0.0084,NDCG@5:0.0044,HR@10:0.0153,NDCG@10:0.0066,HR@20:0.0331,NDCG@20:0.0110,HR@50:0.1284,NDCG@50:0.0294)
INFO:root:Optimizer: Adam
INFO:root:Epoch 1     loss=0.3593 [10.3 s]	dev=(HR@5:0.3536,NDCG@5:0.2503) [0.5 s] *
INFO:root:Epoch 2     loss=0.2106 [9.2 s]	dev=(HR@5:0.4485,NDCG@5:0.3256) [0.5 s] *
INFO:root:Epoch 3     loss=0.1595 [9.2 s]	dev=(HR@5:0.4988,NDCG@5:0.3710) [0.5 s] *
…
