…
 random_seed        | 0                   
 save_final_results | 1                   
 ssl_weight         | 1e-06               
 test_all           | 0                   
 time_periods       | 6                   
 topk               | 5,10,20,50          
===========================================
INFO:root:Device: cuda
INFO:root:Load corpus from data/Grocery_and_Gourmet_Food/SeqReader.pkl
INFO:root:#params: 9130433
INFO:root:SelfGNN(
  (user_embeddings): ModuleList(
    (0-5): 6 x Embedding(14682, 64)
  )
  (item_embeddings): ModuleList(
    (0-5): 6 x Embedding(8714, 64)
  )
  (pos_embeddings): Embedding(20, 64)
  (time_embeddings): Embedding(101, 64)
  (time_projections): ModuleList(
    (0-5): 6 x Linear(in_features=64, out_features=64, bias=True)
  )
  (graph_gru): GRU(64, 64, batch_first=True)
  (user_graph_attention): TransformerLayer(
    (masked_attn_head): MultiHeadAttention(
      (k_linear): Linear(in_features=64, out_features=64, bias=True)
      (v_linear): Linear(in_features=64, out_features=64, bias=True)
    )
    (layer_norm1): LayerNorm((64,), eps=1e-05, elementwise_affine=True)
    (dropout1): Dropout(p=0, inplace=False)
    (linear1): Linear(in_features=64, out_features=64, bias=True)
    (linear2): Linear(in_features=64, out_features=64, bias=True)
    (layer_norm2): LayerNorm((64,), eps=1e-05, elementwise_affine=True)
    (dropout2): Dropout(p=0, inplace=False)
  )
  (item_graph_attention): TransformerLayer(
    (masked_attn_head): MultiHeadAttention(
      (k_linear): Linear(in_features=64, out_features=64, bias=True)
      (v_linear): Linear(in_features=64, out_features=64, bias=True)
    )
    (layer_norm1): LayerNorm((64,), eps=1e-05, elementwise_affine=True)
    (dropout1): Dropout(p=0, inplace=False)
    (linear1): Linear(in_features=64, out_features=64, bias=True)
    (linear2): Linear(in_features=64, out_features=64, bias=True)
    (layer_norm2): LayerNorm((64,), eps=1e-05, elementwise_affine=True)
    (dropout2): Dropout(p=0, inplace=False)
  )
  (sequence_attentions): ModuleList(
    (0-1): 2 x TransformerLayer(
      (masked_attn_head): MultiHeadAttention(
        (q_linear): Linear(in_features=64, out_features=64, bias=True)
        (k_linear): Linear(in_features=64, out_features=64, bias=True)
        (v_linear): Linear(in_features=64, out_features=64, bias=True)
      )
      (layer_norm1): LayerNorm((64,), eps=1e-05, elementwise_affine=True)
      (dropout1): Dropout(p=0, inplace=False)
      (linear1): Linear(in_features=64, out_features=64, bias=True)
      (linear2): Linear(in_features=64, out_features=64, bias=True)
      (layer_norm2): LayerNorm((64,), eps=1e-05, elementwise_affine=True)
      (dropout2): Dropout(p=0, inplace=False)
    )
  )
  (meta_fc1): Linear(in_features=192, out_features=64, bias=True)
  (meta_fc2): Linear(in_features=64, out_features=1, bias=True)
  (user_ln): LayerNorm((64,), eps=1e-05, elementwise_affine=True)
  (item_ln): LayerNorm((64,), eps=1e-05, elementwise_affine=True)
  (seq_ln): LayerNorm((64,), eps=1e-05, elementwise_affine=True)
)
INFO:root:Test Before Training: (HR@5:0.0381,NDCG@5:0.0225,HR@10:0.0784,NDCG@10:0.0353,HR@20:0.1616,NDCG@20:0.0560,HR@50:0.4313,NDCG@50:0.1086)
INFO:root:Optimizer: Adam
INFO:root:Epoch 1     loss=0.5776 [7.7 s]	dev=(HR@5:0.2499,NDCG@5:0.1675) [1.2 s] *
INFO:root:Epoch 2     loss=0.3959 [6.6 s]	dev=(HR@5:0.3150,NDCG@5:0.2130) [1.1 s] *
INFO:root:Epoch 3     loss=0.3039 [6.7 s]	dev=(HR@5:0.3074,NDCG@5:0.2061) [1.1 s]
…
